backend/monika.onnx (onnx, 128736 bytes, 27 tensors)

emb.weight f4 [5, 32]
00000000: 9f98 483e b7f1 7ebf 7bae ce3e f7a5 933f
00000010: afe2 86bc ea72 a23f 4eb2 223f c5ae b1bf
00000020: ccda 68bf ba77 cabf 6e41 b2be 9989 053d
00000030: b7dc 1ac0 8e0a 893f 2372 2a3f c712 f33f
00000040: a6eb 963f e775 b13f fa58 d8bf 8610 e93e
00000050: 1a41 3fbf 5021 873e 7cdc f0bf 7f9c da3e
00000060: 3702 843f 1dcd d33e de72 a23f 579b 1abf
00000070: 363c 4f3f 732f e43f a26b 11be 2471 e0bd
00000080: 91c0 bcbd 6919 a6bf cee1 f03e c488 d7bf
00000090: 471c dcbc c138 0ec0 565e e53f d092 cb3f
000000a0: 06d5 e5be 0232 463f 792a bf3f 4545 4b3f
000000b0: 9ab2 393f 79db a93f 093f f8be c96b d13e
000000c0: bcca 443f 55d4 733c e7b4 493f 1855 9c3f
000000d0: 9dd1 cd3f 18ba 88be 3b9d bdbe e3c4 6bbf
000000e0: 838a b2bf b214 b3be 4b57 ce3e 2c12 fcbd
000000f0: 9f50 64bf cf66 4d3d 62eb e33f 04ae 4f3f
00000100: 9011 563f f846 dc3f 8a45 d13e a238 a9be
00000110: f089 3bbf a794 8fbf ce29 a73f b737 463f
00000120: c5d5 08be 0d29 08c0 07e4 293f 3847 89be
00000130: 7857 5fbf 4810 a43e ffb1 8fbf 6d4e 243f
00000140: 194e 003f 85db 243f 8011 b13f 6e34 f23e
00000150: 0b0c c53f dba8 92bf f5a2 683f f8ac 44bf
00000160: bf1e 1f3e f309 23bf 2dde bd3e 94d7 8cbd
00000170: 338b 04c0 9ade 39be 6fa7 013f 8da5 b2be
00000180: f900 e2be da7a 773f c11b 083e 7f4d 06c0
00000190: 27e9 16be 3a6a 54be a7da 13bd 72be 28bf
000001a0: cd34 423f 37c7 6cbf 8208 d93e 0f94 e0be
000001b0: 65f9 dbbf 68ac 36be 2aa6 40bf b7c1 b9be
000001c0: 894a 543f ad1c 3c3f 5a12 1e3f a8df 57be
000001d0: 92e1 44be 0bad 8cbf 97eb 4abe 8f1a e5be
000001e0: 9aef 02bf 9532 d73e 2dfe 863f d2d1 afbc
000001f0: 4a3b aa3d 1abd afbf f87d ddbf 536a 243e
00000200: 77b0 a7be 08f3 9dbc b4f5 7f3e eba5 893f
00000210: 8a54 643f 7b08 5c3e 0a77 71bf 10e1 683e
00000220: ab6c a0be 8443 d1be 75d0 e7bd 2e6b 53bf
00000230: 99ce 1dbf 491e 18bf e9c3 0cc0 e485 bbbf
00000240: 572e fb3e 8010 e3bb 9dfd e4be 9d23 84be
00000250: 984d 08bf b767 c93f 25f1 263f c3c5 3bbf
00000260: b032 2ebf 666f 683f 65c8 abbd 17f7 b6bf
00000270: 9e0e e5bf d736 893f 8d0b e1bf b113 043f
0.1958947 -0.9958758 0.40367493 1.1535023 -0.016465513 1.2691319 0.6355332 -1.388146
-0.9095886 -1.5817788 -0.34815544 0.032601926 -2.4197214 1.0706346 0.6658041 1.8990105
1.1790664 1.3864106 -1.6902153 0.4552042 -0.7470871 0.26392603 -1.8817286 0.42697522
1.0313176 0.41367427 1.2691305 -0.6039328 0.8095125 1.782698 -0.14201215 -0.1095908
-0.092164166 -1.2976505 0.47047275 -1.6838613 -0.026868952 -2.222214 1.7919414 1.5904179
-0.44889086 0.77420056 1.4934837 0.7940257 0.7253815 1.3270103 -0.48485592 0.40902546
0.7687185 0.014882167 0.7879166 1.2213469 1.6079594 -0.26704478 -0.3703402 -0.920973
-1.394852 -0.34976727 0.40300974 -0.123081535 -0.8918552 0.050146874 1.7806208 0.811249
0.8362055 1.7209158 0.40873367 -0.3305102 -0.7325735 -1.121724 1.3059633 0.77428764
-0.13362797 -2.1275055 0.6636357 -0.26812148 -0.8724284 0.32043672 -1.1226195 0.6418217
0.5011917 0.6439746 1.3833466 0.47305626 1.53943 -1.1457781 0.9087365 -0.7682643
0.15539072 -0.63687056 0.3708357 -0.06877056 -2.070996 -0.18151322 0.5064611 -0.3489193
-0.44141367 0.9667183 0.13291837 -2.09848 -0.14737378 -0.20743647 -0.036097195 -0.65915596
0.7586182 -0.9249148 0.42389303 -0.4386296 -1.7185484 -0.17839205 -0.75253546 -0.36280605
0.8292623 0.73481256 0.6174675 -0.21081412 -0.19226673 -1.0990309 -0.19816433 -0.44746825
-0.5114685 0.4203078 1.0546318 -0.021462355 0.0831209 -1.3729584 -1.7304068 0.16056184
-0.3275182 -0.019280925 0.24996072 1.0753759 0.89191496 0.2148761 -0.94322264 0.22742105
-0.31332907 -0.40871823 -0.11319057 -0.8258542 -0.6164337 -0.5942121 -2.1994574 -1.4650235
0.49058792 -0.006929457 -0.44724742 -0.2580842 -0.532434 1.5734776 0.6521171 -0.73348635
-0.68046093 0.9079498 -0.083878316 -1.4294156 -1.7895086 1.0719861 -1.758165 0.51592547

pos.weight f4 [64, 32]
00000000: 459f 4c3f 5d2e b3bd e74a 463d d1d4 833f
00000010: 438e 8b3f 3ff4 233f 2da5 7e3f 032b 943e
00000020: 029d 1c3f 1515 2f3e 0eab eabe f07c 1a40
00000030: d9d2 b2be 6065 80bf 84ab d1bf 6b85 80be
00000040: ac35 05bf fdfc 723f f98c f13e 2a05 4bbd
00000050: 0dc9 54bf 5079 a53e 79fc 423f 7f0e 8abf
00000060: f604 b63e a3cb 693e 2672 483c 6634 5b3f
00000070: f726 79bf 57da e33e 2a88 8bbf e2c0 9fbe
00000080: 8258 0b3f a6e3 8ebc 5f5c 0a40 2e85 6bbf
00000090: 4dda b63f a3c5 01be 8a67 c43e 38bd 9fbf
000000a0: 5c43 363f 0b1e 39bf 6c68 8fbf d2e5 0f3f
000000b0: 7bac 31bf c780 d9be 34c4 87be 375d c23f
000000c0: 4fe9 52be 24d6 263f 7374 4f3d aa61 e73e
000000d0: f682 1cbf a24f b23e f508 ff3e 9a84 0ebf
000000e0: 9d4a 93bf 76e8 bf3d e9fb 713e aab0 4abe
000000f0: c832 813f fb72 cb3f 7311 10bf e376 433f
00000100: fd20 11bf 8c2a 79bf 5a59 6abf fb25 eebe
00000110: 2858 be3f 9de0 1c3f 6190 cebf d970 ccbf
00000120: caab 53bf 96e5 0cbc c2cb c0bf 9daf 133f
00000130: f7af da3e 2c7b a4bf 0a8b dcbe 2926 bbbe
00000140: 07f9 4dbf c3ef 3d3f a3bd dc3f 4ad9 903f
00000150: 80cd 293f 949b d2be 2279 d53f 2d6f 6f3e
00000160: 5705 11be dd91 b4bf 412d 82be 2c20 dc3d
00000170: 0ca5 8a3f 5c15 4e3d 04fa c13e e8e7 0abf
00000180: d552 90bf 809f 2cbe 4a1e 8a3f 1dc5 cbbd
00000190: fa77 de3e 2703 0d3f 3c94 b1bf 63b7 29be
000001a0: 6b28 2d40 80f5 2abf 5072 b93f 64a6 8f3f
000001b0: 001f 2cbe 2ac7 a3bf f071 823f d985 5dbf
000001c0: 91a8 253f d5f7 aebd 24aa 1dbe 3328 883f
000001d0: 772e cc3f cbc8 793f 1836 033f caf7 cabf
000001e0: 04d0 cdbe 2e5b b33f cac6 32bf 7550 7c3f
000001f0: a41d c7bd fe7c 96bf f2b3 51bf cf52 30bf
00000200: a8dc 4dbf aef5 b33e f252 6b3f 584b 87bf
00000210: aa67 9a3e 9f90 aabf cd5b 8a3f 8b18 13c0
00000220: 107b af3f af9b 013f 0835 c8be 6907 59bf
00000230: 3f35 2abf 9938 d0be a2ba f03f 900b fdbf
00000240: 17ae 17c0 5566 8f3f 9a46 e7be f765 263f
00000250: eadb b9bf 2aae 843f 7c6c f13f bd4a d2be
00000260: 6102 cc3f fcab aebe 9ab2 60bf 89f5 27bf
00000270: 92d4 24bf 5732 c9bf f383 a43f fd7a bf3f
00000280: 41fb 23bf cd47 8c3f 60aa 82be b243 3d3f
00000290: 4079 a53f 43c1 08be 6561 fd3c e544 0ebf
000002a0: e0e4 a7bf 56d8 1540 cd9e 003f 9c54 1fc0
000002b0: d079 003e 745f d4bf 72d0 8a3f 7c0e 2c40
000002c0: 9567 2fbe f85d 943d 4cb8 80bf d375 9bbf
000002d0: 3512 ce3f e02b e23e f12c ce3e cc16 af3f
000002e0: 792a 95be a790 02bf 4adf de3e a30e 1c3f
000002f0: 175b e43f bb1d 84bf 9658 88be 56f5 943e
00000300: 1199 e9be 057c a4bd 3362 293e 8c05 3fbe
00000310: fc0c 33be f945 15bd a078 63bf ec33 803f
00000320: e311 7bbe 476f dcbf 6c79 bfbe 371b 833d
00000330: a4b7 5f3f 9d47 ccbf e8e1 513e 60a9 aebf
00000340: 05d7 413f 505b 723d eec0 25bf e16a 283c
00000350: b81a 59bf 22f2 f73f 44d2 633f 81ad 5a3f
00000360: 8984 82bd c34f cabd c996 f0be 60a8 a93e
00000370: 4a16 aa3f 6986 04bf bbd3 60bf d437 c63f
00000380: c58a 77bf 425b 8f3e 3251 c1be 98ca 58be
00000390: d470 1940 ef04 623e 7af3 c4bf 237f a9bf
000003a0: cb73 5c3f f056 eb3e de11 82bf b86f e53e
000003b0: 85e5 153e 28a9 1040 8573 3cbf afdc 983e
000003c0: 5018 1a3f a4ef 373f 9657 933f f14d c43e
000003d0: 71c2 983f 8886 8e3f e7af ffbe 5b17 083f
000003e0: bf38 353e 0f8c 913e d954 bbbf ddd4 213f
000003f0: b078 a9be 5b50 aabf dd70 283f 301f 1dc0
0.79930526 -0.087490775 0.048411276 1.0299321 1.090279 0.64044565 0.9947079 0.28939065
0.61177075 0.17097886 -0.4583363 2.4138756 -0.3492649 -1.0030937 -1.6380467 -0.2510179
-0.5203502 0.9491728 0.47177866 -0.04956547 -0.8311928 0.32319117 0.7616649 -1.0785674
0.3555066 0.22831587 0.012234246 0.8562683 -0.9732508 0.44502518 -1.0900929 -0.31201845
0.5443193 -0.017442536 2.161888 -0.9200009 1.428537 -0.12673049 0.38360244 -1.247962
0.7119653 -0.72311467 -1.1203742 0.5621005 -0.6940381 -0.42481062 -0.2651688 1.5184697
-0.20596813 0.651705 0.050648164 0.451917 -0.6113733 0.3482638 0.4981152 -0.55671084
-1.1507145 0.0937051 0.23631252 -0.19793954 1.0093622 1.5894464 -0.56276625 0.7635328
-0.5669096 -0.97330546 -0.9154259 -0.46513352 1.4870653 0.6128023 -1.6137811 -1.5971938
-0.82684004 -0.008599659 -1.5062182 0.5768984 0.42712376 -1.2850089 -0.43074828 -0.3655255
-0.8045811 0.7419397 1.7245373 1.1316311 0.66329193 -0.41134322 1.6677592 0.23382254
-0.14162193 -1.4107014 -0.2542515 0.10748324 1.0831618 0.05031334 0.3788606 -0.5426011
-1.1275278 -0.1685772 1.0790493 -0.09949706 0.4345091 0.55082935 -1.3873363 -0.16573863
2.705592 -0.66780853 1.448801 1.1222653 -0.168087 -1.2795155 1.0191021 -0.8653236
0.64710337 -0.08543364 -0.15396935 1.0637268 1.595168 0.9757201 0.51254416 -1.5856869
-0.40197766 1.4012201 -0.6983458 0.9856027 -0.097224504 -1.1756895 -0.819152 -0.68876356
-0.8041482 0.35148376 0.9192344 -1.0569868 0.30157214 -1.3325385 1.0809265 -2.298373
1.3709431 0.5062818 -0.3910296 -0.8477693 -0.664875 -0.4066818 1.8806956 -1.9769154
-2.3700006 1.1203104 -0.45171052 0.64999336 -1.4520237 1.0365651 1.8861232 -0.41072646
1.5938226 -0.3411559 -0.87772524 -0.6560903 -0.64386857 -1.5718488 1.2852768 1.4959408
-0.6405526 1.0959412 -0.2552061 0.7393142 1.2927628 -0.13354973 0.03093023 -0.55573875
-1.3116722 2.341329 0.5024231 -2.4895391 0.12546468 -1.659163 1.0844862 2.688384
-0.17129357 0.072444856 -1.0056243 -1.2145332 1.6099306 0.441741 0.40268663 1.3678832
-0.29133967 -0.5100197 0.4352973 0.60959834 1.7840298 -1.0321573 -0.26630086 0.29093426
-0.45624593 -0.08031467 0.16541366 -0.1865446 -0.17485422 -0.036443684 -0.88855934 1.0015845
-0.24518542 -1.7221459 -0.37397325 0.06401675 0.8738959 -1.5959355 0.20496333 -1.3645439
0.7571872 0.059169114 -0.6474751 0.010279388 -0.84806395 1.9370768 0.88992715 0.85420996
-0.06372935 -0.098784946 -0.4699004 0.33136272 1.3288052 -0.51767594 -0.87823075 1.5485787
-0.9669612 0.27999312 -0.3775726 -0.21171033 2.3975115 0.22072195 -1.5386803 -1.3241924
0.86114186 0.45964766 -1.0161703 0.44811797 0.14638336 2.2603245 -0.7361377 0.29855868
0.6019335 0.7185004 1.1511104 0.38340715 1.1934339 1.1134806 -0.4993889 0.5316064
0.17697428 0.2842717 -1.4635268 0.6321543 -0.3309989 -1.3305773 0.65797216 -2.4550285

blocks.0.self_attn.in_proj_bias f4 [96]
00000000: a06d b2bc 7d17 bcba 8f82 28bd 5931 6d3c
00000010: 1fa3 663c 009f 76bc 79bc c43c 2187 4abd
00000020: 7e00 7a3c 6941 4b3c b62c 62bd 27fd 96bc
00000030: 6b78 693c 88d8 da3b 5bc1 04bd fc45 63bd
00000040: 1865 12bd 2a22 8a3c 11fc 02bd e7c9 08bb
00000050: 7cfc 113d ab3f ee3c 204f 33bd 253a 0fbc
00000060: 67e5 6bbc d0c4 4a3c 47c5 043b f2d2 e7bc
00000070: b992 643d 53d5 5dbd 4887 933c 4ec5 afbd
00000080: 4e3c 923a 9016 ee3a b6dc 53bb d2dd 813b
00000090: 94e4 7bbb 0d07 6fba 5216 a53a 79c7 343a
000000a0: 9f05 8a39 23e0 6439 1a04 7e38 ea6a dcb8
000000b0: b8a8 35ba 7990 43b9 4f5d f7b9 cbcc cd3a
000000c0: 5515 6139 23de 08bb b615 e638 7afd a0b9
000000d0: 4faa 00bb f1b4 423a bfdb 6d39 7f07 8d3a
000000e0: 4e9e b8b9 2ba7 023a 343e 05b9 82a6 b5b9
000000f0: d6d4 d1b9 110f 0ebb 6901 9fb9 2b2e d4b9
00000100: 6aaa af3b 27b4 58bb 3812 b0bb 539b 0c3d
00000110: a91b 57bb 4cfa eabb 0be7 52bc 8bce 45bc
00000120: 5cf0 ca3c 5750 86bc dc7a b639 ff86 5cbc
00000130: f041 a5bc 3013 95bc 87cb 85bc 5375 85bc
00000140: d10c bfbc 07c1 833b 46ed 883a 0a96 32bb
00000150: 34d0 073c 675a 8fbc 70f6 62bc b731 9d3c
00000160: cb93 29bc d35a f9bb 7b22 dabc 648d 853b
00000170: 4bed c7bc 0b72 a23c c589 0dbc 4566 983c
-0.021780789 -0.0014350262 -0.041140135 0.014477097 0.014076977 -0.015052557 0.024015652 -0.049445275
0.015258906 0.012405732 -0.05521842 -0.01843126 0.014249901 0.0066786446 -0.03241096 -0.055486664
-0.03574094 0.016861994 -0.03197867 -0.0020872296 0.03564118 0.029083094 -0.04377663 -0.00874189
-0.0143979555 0.012376025 0.0020259188 -0.028298829 0.055803988 -0.05415852 0.018008843 -0.08582555
0.0011156888 0.0018164683 -0.00323276 0.0039632106 -0.0038435804 -0.0009118177 0.0012595153 0.0006896179
0.000263256 0.00021827272 6.056214e-05 -0.00010510332 -0.0006929743 -0.0001865047 -0.00047181032 0.0015701292
0.00021465619 -0.0020884357 0.000109712986 -0.00030706433 -0.0019632762 0.0007427475 0.00022683943 0.001075968
-0.0003521316 0.00049840164 -0.00012707041 -0.00034647068 -0.00040022162 -0.002167646 -0.00030327894 -0.0004047019
0.005360891 -0.0033066364 -0.0053732656 0.034327816 -0.0032822883 -0.007170951 -0.012872468 -0.012073169
0.024772815 -0.01639573 0.00034805282 -0.01345992 -0.020173043 -0.018197626 -0.016332401 -0.016291296
-0.023321541 0.0040208134 0.001044669 -0.0027250075 0.008289386 -0.017499162 -0.013852701 0.019188745
-0.010350178 -0.007609704 -0.02662777 0.004075693 -0.024405142 0.01982977 -0.008638804 0.018603453

blocks.0.self_attn.out_proj.weight f4 [32, 32]
00000000: 4094 f8bd ea07 8abd 2562 e8bd 13a0 8ebd
00000010: ed82 4a3d 13d0 843d a976 e53c c602 133e
00000020: e85d dcbd fb33 1d3e c615 163d b24b 8bbd
00000030: 2653 d63c 6acc 3fbc e553 1f3e 2e7a 32bd
00000040: af41 cdbd 73b5 03be 0d3a 6e3c 839c 903d
00000050: d636 a53c 525d 99bd 6d3f c83d 44cb 82bd
00000060: 2a35 b13d 9aca 21bd 112b 343d 1259 c6bd
00000070: 4111 b13d b470 25be e4db 14be 6deb fb3d
00000080: 9f46 ccbd fa8c ebbd 02ba 08be 0512 43be
00000090: 4d8a 223e 4825 e2bd c9b4 c73c c536 9f3d
000000a0: 1066 b5bb 17be 01be 63b1 d53c 847c a7bc
000000b0: 76ef 153e 3a87 2abe 4131 f4bd 2f42 053d
000000c0: 09a2 93bc 1da7 78be cdf9 02be 56f4 793d
000000d0: bc42 403d 7a8a b4bd 34e2 d43c 8e0b 70bd
000000e0: 595a cfbc 47a8 283e 81d1 a43d 4a8e f2bc
000000f0: bea3 8abd 3900 6e3b 0b1e a5bc ee23 e0bc
00000100: 775f 16be 939d b73d 62ec 0abe d8e0 fbbd
00000110: ab0c 02be 5268 39be 29dc 09be f705 18be
00000120: 36b6 45bd f237 3fbe b69e 29be bb44 e1bd
00000130: f408 2fbe 4043 babd 55d7 17be dc6e 023e
00000140: 805c d7bd af0d b3bd c72e 8c3d 5569 80bd
00000150: dc92 9d3c b09c 58bd b458 e4bd 860c ef3c
00000160: d344 02be ef9c 463e 75da e73d eb7d 613e
00000170: 90ac 33be e341 f7bd cdec eabc df2f 17bd
00000180: e468 0c3e 2e9a 403e c228 30be c346 043e
00000190: c647 863d 80e4 213d 97eb 1cbd 11e5 f5bd
000001a0: d511 b33d 40b9 523e 3e95 85bd c64f f13d
000001b0: 2e82 573c 878d 943b bf44 16be fe7b d03d
000001c0: 5d9b 96bc 9869 d4bc e0eb bb3c 9205 b8bc
000001d0: 298f 053e cbf7 00bd 2dff 13be 4289 803b
000001e0: 243f 9cbd f5d6 40be c67b 233e 6f7c ccbd
000001f0: 7983 07bd 5c37 30bd 99e7 f7bd 3b82 433e
00000200: 6fdd 08bd 8331 81bd 62ea 12ba d639 1dbe
00000210: a511 5a3d 6720 f83c 71ae 6fbd eb19 09be
00000220: fd94 10be c4a8 df3c bf66 f3bd 360a 45bd
00000230: e203 ef3c 724a 063e a037 023e fef4 8a3d
00000240: 5e48 ac3d 9597 883d b9e3 4a3e e889 733d
00000250: 33cb afbd e1fd fe3d 04c1 b63c 64b1 02be
00000260: 3605 473d 7113 033e 4c31 0abe e9b0 f53d
00000270: dc9f 0fba 6358 d93d 97e2 193d aeb5 173c
00000280: 0b2e 243d 0ff6 37bd 5903 0f3e be24 4f3c
00000290: dfd9 9cbd 6ffd 62be 809d 18be 5269 a03c
000002a0: 21e2 f9bd 8f39 523d 161e 96bd d487 113d
000002b0: f208 81bd a8c0 8fbb d476 0bbe 1cf0 acbc
000002c0: 9a37 2abe 24c8 053e 8600 df3d 71b4 ec3d
000002d0: 77f4 fdbc 4007 5a3c fc7d de3b e72f a93d
000002e0: 4c29 303d d008 d1bd eca5 493c 75d2 0b3c
000002f0: d73c e23d 4b26 1c3e d014 9e3d 8c3f 03be
00000300: 604c 413d 74f0 88bc 95bf cd3d a297 96bd
00000310: 0531 a7bc 8e77 89bb 7d37 5c3d 929d b73d
00000320: 10b8 12ba 8936 a63d 22aa 1d3e 5d57 8a3d
00000330: ce00 c43d 0370 6cbd 36b9 35bc abf0 1dbe
00000340: bf18 c5bc 5ee8 01ba 6644 713d 9f17 a4bc
00000350: 990d 253e c1a4 0e3e 1b8e 29bd e46f 13be
00000360: b842 b6bd 0205 3f3e 1410 163e 6e03 9f3d
00000370: 91a2 2e3d b82a 28be 6774 d8bd 3a4c 27be
00000380: 241c 53be 928a 9f3c 737c e9bd 8320 0bbd
00000390: 5529 58be 5b13 e8bd b1cc 4f3d 222b f8bd
000003a0: 24cb c33d 2ad7 69bd af09 e13d f2bb dfbd
000003b0: d0f3 bbbd 4ac5 ae3d 8fcb 613d f33f 04be
000003c0: 21a4 2e3d 016f eb3d f231 55be 6077 cfbd
000003d0: 2059 fabc 7577 fdbd e6b0 893d ab28 743d
000003e0: 61af 0bbb 2e20 8c3d 58a1 f33d 13e1 f03d
000003f0: 7abd 4fbd e0ff 35be f43b f6bd 6961 36be
-0.121376514 -0.06739791 -0.113468446 -0.069641255 0.049441267 0.064849995 0.028010683 0.14356527
-0.10760099 0.1535186 0.03664186 -0.06801547 0.026162695 -0.011706451 0.15559347 -0.04357355
-0.10022294 -0.12862186 0.014540208 0.07061102 0.02016775 -0.074885026 0.097777225 -0.06386426
0.08652718 -0.039499857 0.043986384 -0.096849576 0.08645869 -0.16156274 -0.14537007 0.12300763
-0.099744074 -0.115014985 -0.13352206 -0.19049843 0.1587307 -0.11042267 0.024378197 0.07774118
-0.0055358484 -0.1267017 0.026085561 -0.020445116 0.14642128 -0.16653147 -0.11923457 0.03253382
-0.0180216 -0.24282499 -0.12790604 0.061024033 0.046938643 -0.08815475 0.025986768 -0.05860477
-0.025311636 0.16470443 0.08047772 -0.029608864 -0.067695126 0.003631605 -0.020155927 -0.027360883
-0.14684854 0.08965602 -0.13566735 -0.12298745 -0.12700145 -0.18106201 -0.1346289 -0.14846025
-0.048269473 -0.18673685 -0.1656445 -0.109994374 -0.17093259 -0.09094858 -0.14828236 0.12737602
-0.1051569 -0.08742844 0.068448596 -0.062700905 0.019235067 -0.052883804 -0.11149731 0.029180776
-0.12721567 0.19395803 0.11320964 0.2202069 -0.17546296 -0.12073114 -0.028677369 -0.036910888
0.13711888 0.18808815 -0.17203048 0.12917618 0.065566584 0.039524555 -0.038310613 -0.120065816
0.087436356 0.2057848 -0.06522606 0.11782794 0.013153596 0.004533473 -0.14674662 0.101799
-0.01838463 -0.025929257 0.022939622 -0.022463594 0.13042893 -0.031486314 -0.1445281 0.0039226124
-0.076292306 -0.18832 0.15965185 -0.09984671 -0.033084366 -0.043021545 -0.121047206 0.19092648
-0.0334143 -0.06308272 -0.0005604384 -0.15354094 0.053239483 0.030288888 -0.05851597 -0.13388793
-0.14119335 0.027302153 -0.11884832 -0.04810544 0.029176656 0.13114336 0.12716532 0.0678501
0.084122404 0.06669537 0.19813432 0.05945769 -0.08583679 0.12450767 0.022308834 -0.12762982
0.048588954 0.12800385 -0.13495368 0.119966336 -0.0005478838 0.106125616 0.03756961 0.009259624
0.040082972 -0.044912394 0.13966121 0.012643037 -0.07658743 -0.2216699 -0.14903831 0.01958147
-0.12201334 0.051324423 -0.07329957 0.035529926 -0.06300534 -0.00438698 -0.13619548 -0.021110587
-0.16622773 0.13064629 0.10888772 0.11557854 -0.031000359 0.013307393 0.006789921 0.0826109
0.043008134 -0.10206759 0.012307625 0.008534064 0.110467605 0.15248983 0.077188134 -0.1281721
0.047191978 -0.01671622 0.10046307 -0.073531404 -0.020409117 -0.00419516 0.053763855 0.08965601
-0.00055968855 0.081158705 0.15396932 0.067549445 0.09570466 -0.05772401 -0.011091521 -0.15423839
-0.024059651 -0.0004955585 0.05890312 -0.020030795 0.16118468 0.13930036 -0.041395288 -0.14398152
-0.08899444 0.18654254 0.14654571 0.07764326 0.042635504 -0.16422546 -0.10569077 -0.16337672
-0.20616204 0.019475255 -0.1140069 -0.033966552 -0.21109517 -0.11331817 0.05073232 -0.12117602
0.095602304 -0.057089962 0.10988175 -0.109245196 -0.09177363 0.08533724 0.05512577 -0.1291502
0.042636994 0.11495782 -0.20819834 -0.10130191 -0.030560076 -0.123763 0.06723194 0.059609096
-0.002131425 0.06842075 0.11896008 0.117616795 -0.05071781 -0.1777339 -0.12023154 -0.17810597

blocks.0.self_attn.out_proj.bias f4 [32]
00000000: 8eff c6ba ed05 29bd 9b20 403c 1807 c3ba
00000010: 29f4 75bb 7044 68bc 40e6 ddbb fadb bf3c
00000020: c252 423d 047d 6a3d 2cb6 c4bc 23be f33c
00000030: c954 94bb 59f9 80bc 6a84 223c 2730 e13a
00000040: 7f2c e1bb 4525 30bc a19a f9bc 59ba 873c
00000050: d785 83bb af30 1e3c ae1b a4bc 75c9 fdbb
00000060: 294e b53c 7ca5 983b 3839 883c 9787 9ebc
00000070: 9945 e13c 43d8 b73b ec97 743c aad9 803c
-0.0015182362 -0.041265417 0.011726524 -0.0014879433 -0.0037529564 -0.014176473 -0.0067718327 0.023420323
0.047442205 0.05724813 -0.024012648 0.02975375 -0.0045267087 -0.015743898 0.009919265 0.0017180488
-0.0068717594 -0.010751073 -0.03046924 0.01656835 -0.0040137577 0.009655162 -0.02003273 -0.007744963
0.022131996 0.004658399 0.016628847 -0.019351764 0.027499007 0.005610497 0.014928799 0.01572879

blocks.0.linear1.bias f4 [64]
00000000: e518 fc3c ad0f 08be 5e36 84bd 915f ddbb
00000010: 5a2a ea3d e088 253b 20ed d83c ae03 e4bc
00000020: 49e7 89bc aa5d 27bd 9033 11be e820 063e
00000030: aeb3 1c3e 0435 5b3b 0503 bd3d 24e5 1b3e
00000040: 9419 5dbe 3c59 9cbd 1a4a ecbd 8890 61ba
00000050: 57f6 55bd 3851 cd3d 3dd4 9f3d 7dd8 a93d
00000060: 06dd b63d 2728 1ebe afb9 2a3d dbdc 0ebe
00000070: f45f 2cbe 242f 8ebb df36 0d3e bc69 d3bd
00000080: eb01 d7bd 245a fdbc c374 0ebd 2d4e e03d
00000090: a1a8 f8bd 2bb4 bdbd 9b29 a83d 03b9 383d
000000a0: b276 40be c739 a63d b4ed adbd 1df1 ce3d
000000b0: ec16 863d 07a5 0b3e 0021 d93c 9b1a fa3c
000000c0: a209 1fbe 7c02 5b3c 1ad6 01bd 3c75 943c
000000d0: 1f37 2b3e 1eef 32be 1bc2 a2bd 699f 2a3d
000000e0: 39da 2a3d 3bb2 d83c 1469 8f3d d1c9 cdbc
000000f0: 734f 2dbe a5af bb3d 3075 8f3d 0b4f b9bd
0.03077359 -0.1328723 -0.06455682 -0.006755777 0.11433859 0.0025258586 0.026480258 -0.027833786
-0.016833918 -0.04086081 -0.14179826 0.1309849 0.15302917 0.0033448348 0.092290916 0.15224129
-0.21591789 -0.076342076 -0.11537571 -0.00086046057 -0.05223688 0.10025257 0.07804153 0.08293245
0.089288756 -0.15445004 0.041680988 -0.13951437 -0.16833478 -0.0043391157 0.13790463 -0.103229016
-0.10498413 -0.030926771 -0.03477932 0.10952411 -0.121415384 -0.0926288 0.082110606 0.045098316
-0.18795279 0.08116489 -0.08492604 0.101045825 0.06547341 0.13637172 0.026504993 0.030530265
-0.15531018 0.013367292 -0.031698324 0.018122308 0.16720246 -0.17474028 -0.07947179 0.04165593
0.04171202 0.026452174 0.07002464 -0.025120648 -0.16924839 0.09164361 0.070047736 -0.090482794

blocks.0.linear2.bias f4 [32]
00000000: 3fd1 70bc 8948 2a3d 7e2f 873d dff0 b0bd
00000010: 4b9f 25bd a764 43bc e618 0ebd b82f 023e
00000020: 3251 a03d 8993 c63d 7084 72bd 1594 7c3c
00000030: 82dc de3d dbeb b9bd 3643 c0bd 2f93 16bb
00000040: 4dce a0bd 48fe 3e3d cb42 63bd 6917 cf3d
00000050: f103 b5bd a89f 77bb 492a edbd 8e44 e3bc
00000060: 15d6 ae3d 0be9 9fbd 5ce1 d53d 86cf 743d
00000070: 1e34 4e3d c752 c93d db17 1dbd 2d28 98bc
-0.014698326 0.04157308 0.06600855 -0.086396925 -0.040435117 -0.011925853 -0.034691714 0.12713516
0.07827987 0.09696109 -0.059208333 0.015416165 0.10881902 -0.09078189 -0.093878195 -0.0022975912
-0.07851849 0.04662922 -0.05548362 0.10111887 -0.088386424 -0.0037784372 -0.11580331 -0.02774265
0.08536927 -0.07808121 0.104433745 0.059768222 0.05034267 0.09830242 -0.03835283 -0.018573845

blocks.0.norm1.weight f4 [32]
00000000: 88f7 7d3f 395b 7b3f ee5d 7c3f c159 863f
00000010: a819 6d3f 5f80 7d3f 97e3 7b3f 8018 703f
00000020: a293 743f 270d 6d3f 9f7a 713f 5cb2 7f3f
00000030: 8119 7d3f 7b9b 723f ef58 7a3f 0807 7c3f
00000040: 9349 7c3f fc2c 813f b694 773f ece1 7a3f
00000050: da87 823f 3f67 7f3f 574b 863f 6ed9 803f
00000060: d862 743f cc64 7a3f 2ab2 813f 5d7c 853f
00000070: 8f00 753f 5d2d 803f bbea 823f cbc9 803f
0.9920583 0.9818607 0.98580825 1.0496141 0.92617273 0.99024004 0.9839415 0.93787384
0.9553777 0.92598194 0.9432773 0.9988153 0.9886704 0.94768494 0.9779195 0.9844823
0.98549765 1.0091853 0.9671129 0.9800098 1.0197709 0.99766916 1.0491742 1.0066354
0.95463324 0.97810054 1.0132496 1.0428578 0.9570398 1.0013844 1.0227884 1.0061582

blocks.0.norm1.bias f4 [32]
00000000: 42b7 35bc 9b76 06bd e0a7 6fbb cae4 aebc
00000010: f7a1 8d3b b544 27bc 1c86 ccbb 5843 8b3c
00000020: 6e25 3f3d 9378 7f3d 7429 debc 2090 253c
00000030: 7236 b1ba 7983 d0bb 2362 a43c 7e05 0bbc
00000040: dc41 85bc 02da c6bb bf19 1bbd bbb7 243c
00000050: b7fe 233b 3c6e 4bbb ae71 3cbc 92e5 08bc
00000060: 636c ec3c b05e 8a3c 1388 233c 247e 5abc
00000070: c174 093d db77 183c 9ca7 963c eecd bd3c
-0.011091055 -0.032827955 -0.0036568567 -0.02134933 0.004322286 -0.010209252 -0.006241573 0.016999885
0.046666555 0.062370848 -0.027119376 0.010105163 -0.0013520254 -0.006363329 0.020066326 -0.008485196
-0.016266756 -0.006068469 -0.03786635 0.01005357 0.0025023648 -0.0031041047 -0.011501713 -0.008355515
0.028860277 0.016890854 0.009981173 -0.013335738 0.03355861 0.0093059195 0.01839047 0.023169484

blocks.0.norm2.weight f4 [32]
00000000: 171b 7c3f 0cba 793f 2234 7e3f dfe2 843f
00000010: 3a60 733f 1ed0 7c3f d279 7b3f 3ed5 703f
00000020: 38c4 743f 0ff6 723f 4073 6d3f fd30 7a3f
00000030: 2f41 7c3f 8a80 743f b51e 7a3f 4900 783f
00000040: 7d37 7b3f 4565 7b3f 37db 753f e0fa 753f
00000050: 6a33 843f 2b8e 7d3f c405 833f d310 813f
00000060: a7e2 6e3f 1576 7b3f c5a4 813f b785 823f
00000070: 24b3 773f 8b71 813f d40c 853f 6696 813f
0.98478836 0.9754951 0.992983 1.0381736 0.95068705 0.9875506 0.9823276 0.9407538
0.95611906 0.94906706 0.9275398 0.97731 0.9853696 0.95508635 0.97703105 0.96875435
0.98131543 0.982014 0.9603762 0.9608593 1.032819 0.99045056 1.0236135 1.0083259
0.93314594 0.98227054 1.0128409 1.0197057 0.9675772 1.0112776 1.039454 1.0124023

blocks.0.norm2.bias f4 [32]
00000000: ce42 e3bb 2fe9 cebc f602 713b 0f32 f3bc
00000010: 54a0 3b3c d6d2 23bc dcfe 91bb afd9 7e3c
00000020: 5e44 263d 0a37 023d 732c b7bc 1ea0 303c
00000030: 533c 2abc 61ee 5e3b 4f3b 213c df09 81bc
00000040: 5edb 78bc 964d 7abc 1201 00bd 0410 933a
00000050: 32ed 81bb eec3 12ba 6c4e 4cbc 5956 7fbc
00000060: 9564 9f3c c0a1 b43c eee3 483c f2ed 57bc
00000070: 74fd c93c 86b8 2ebc 8066 143d e67d ac3c
-0.006935454 -0.025257675 0.0036775446 -0.029686956 0.011451799 -0.009998998 -0.0044554304 0.0155548295
0.040592544 0.03179077 -0.022360062 0.010780362 -0.010390359 0.0034016597 0.0098408 -0.015751777
-0.01518902 -0.015277287 -0.03125102 0.0011219983 -0.0039650435 -0.0005598654 -0.012469869 -0.015584552
0.019457141 0.022049785 0.012261374 -0.013179289 0.024656989 -0.010664111 0.036230564 0.021056127

blocks.1.self_attn.in_proj_bias f4 [96]
00000000: f7a8 49bc c213 8e3b e8b6 66bb b74e c33b
00000010: d69a 3b3b 1c17 a0bc 75a0 083d fd67 99bc
00000020: 84b2 1ebc f720 443d b7e9 4bbd 5a2c 2b3d
00000030: c205 04bb a585 01bd 2268 c93d 6bda 7a3b
00000040: 736a 473d 0961 0cbd 4c67 51bc 8bd1 f03c
00000050: 276d e9bb 44a0 3e3d 6722 17bd 84d4 54bc
00000060: 6718 1e3d 41ff 093d e654 e13c 7891 1abc
00000070: d4c0 08bb b9b0 303c c3a2 d9bc 96d1 143d
00000080: 9d5b 55b9 4c1a 1d3a d407 15b9 b5ac 8eb7
00000090: 940c a338 3f58 4eba b5b9 1d3a 3c4a 20b8
000000a0: 411b 2a3a 4190 30bb 7e49 9ab9 298e 10ba
000000b0: 112b dbb9 b033 0eb9 d563 0bba 8508 15b9
000000c0: 82da 0dba f050 bc39 1867 19ba eec4 4bb9
000000d0: f63d a838 7ff4 1f3a d998 1d39 1520 793a
000000e0: 6a3b 163a 05e1 66ba 53f9 c9ba e03c 003a
000000f0: 25fd 58ba f5c0 adb9 f6a3 11b9 d9eb c7ba
00000100: 32f5 53bc 00fc 513c 8ad4 39bb ee63 253b
00000110: 2f1c ca3c 3043 33bc ba15 743c 4141 473b
00000120: 2eb4 b7bc aef4 093d 7284 f13c 7c58 8f3c
00000130: d22d 383c 15e5 7b3b c5d1 6bbc 9fa0 9b3c
00000140: 9e03 d9bb 901a 1b3c e966 2bbc ec6a 7a3c
00000150: 51a5 9cbb 4623 06bd bb4c 67bb 9d38 003c
00000160: 3e00 0b3a 6145 a83c 2473 8dbb 000b 8937
00000170: 3579 2c3c e3c4 b03b 8b30 b2bb 7620 7bbc
-0.012308351 0.0043358514 -0.0035204235 0.0059603113 0.0028626225 -0.01954227 0.03335615 -0.018726343
-0.009686116 0.047883 -0.049783435 0.041790344 -0.0020145033 -0.031621594 0.09834315 0.003827716
0.048685502 -0.034272227 -0.012780976 0.029396793 -0.0071236077 0.04653956 -0.036898043 -0.012990121
0.03859749 0.033690695 0.027506303 -0.0094340965 -0.0020866888 0.010784321 -0.026566869 0.03633269
-0.00020347392 0.0005992993 -0.00014212664 -1.7008142e-05 7.7747885e-05 -0.0007871426 0.0006016747 -3.821611e-05
0.00064890465 -0.002694145 -0.00029427925 -0.00055143476 -0.00041803022 -0.0001356143 -0.00053173053 -0.00014212921
-0.00054112833 0.00035918457 -0.0005851849 -0.0001943295 8.0224054e-05 0.00061018014 0.00015029627 0.0009503377
0.0005730899 -0.0008807334 -0.0015409387 0.00048918836 -0.00082774676 -0.00033140896 -0.00013889358 -0.0015252783
-0.012936877 0.012816429 -0.0028355443 0.0025236565 0.024671642 -0.010941312 0.014897758 0.0030403885
-0.022424784 0.03368061 0.0294821 0.017498247 0.011241393 0.0038436104 -0.014393275 0.018997489
-0.0066227457 0.009466782 -0.010461547 0.015284281 -0.0047804494 -0.032748483 -0.0035293538 0.007825998
0.0005302465 0.020540895 -0.0043167043 1.6336795e-05 0.010526945 0.0053945645 -0.0054379157 -0.0153275635

blocks.1.self_attn.out_proj.weight f4 [32, 32]
00000000: 08f0 a5bd a49d e03c b462 9e3c 393b fc3b
00000010: 2d3c 62bd ba40 033e 42b1 17be a124 1cbe
00000020: 26c6 22be 1d41 c9bd 4c35 053e 39f0 fdbc
00000030: 34c6 0cbe 2fd1 79bd 08ac 01be 2cf1 5a3c
00000040: b853 16be 5238 30bd 914e 62bd c9f8 37be
00000050: 7d07 f9bd bef0 0a3c bc89 ce3d 7a46 1e3e
00000060: ba4f a43d d70b d7bd 289f 04bd 3674 22bc
00000070: 3eab c6bc 2631 0abe 1ccf 01be 087f f7bd
00000080: ab3a 0e3e 1a52 e23c ac8d 3fbe 656b 3f3d
00000090: 9a80 aa3d 0f94 17be 0768 033e 73f3 eb3d
000000a0: a030 933d 3596 15be a49e f23d e932 533c
000000b0: 49e0 983d cbec 3e3e a738 3dbd 5256 b43c
000000c0: 536d ba3d 058c a3bd 987c a63c d720 96bd
000000d0: b49b 063e 74d7 ba3d 68ca 0e3e 7e6d a7bd
000000e0: 605b 09be 6f22 56bc 0603 233e f403 c23d
000000f0: 83fe 01be 7869 ac3d 7492 573c d830 09be
00000100: 6f95 6bbd 7e2b f33d d1d8 233d 63bc a8bd
00000110: c31f de3d f074 cd3d c868 f6bd eeaf 9abd
00000120: 18b2 5dbe 8c77 bb3c 745b 1b3e fe60 8a3c
00000130: 7454 993d 9c14 0fbe d62a 1ebe b57d b7bc
00000140: 7ddc e7bd 4eba db3d c4c7 363d 00a8 043d
00000150: 8049 9fbd 0538 0e3d 0f29 f8bd 5754 2b3d
00000160: 760c bd3d 788d ae3c 3f3c 6a3d 83df 9dbc
00000170: 7e94 b93d 6e00 08be 2a71 823d 4f86 1abe
00000180: bb14 09bd ef8d ef3d abca 16bc dea8 81bd
00000190: 9464 2bbe 0498 3dbc c840 04be 3ede 11be
000001a0: 7d97 d43d d48e 0e3e 0024 b6bd 2e7e a9bc
000001b0: 9967 2cbd 9150 e43d 3d97 dd3d 1df6 33be
000001c0: a480 01be 30e8 be3c ea92 273e 14c9 2fbe
000001d0: 9674 3b3e 3b98 ca3c 342c 13be 4ef0 a83d
000001e0: cdcb 3f3e b0d3 cbbd 6758 1cbd bc05 e3bc
000001f0: 21db d6bc 09a8 053e a91a b2bb 3adb 3a3e
00000200: 0e99 f03d 87ae 26bd bb6f 5fbd ad60 8bbc
00000210: 3794 8e3d ce19 a43c f28b debd 550d 183e
00000220: 4a0e ecbd 6749 323d 32cb a03c b0a7 133e
00000230: c9bd ef3c 533a a8bd 357d 74bd 54c9 ae3d
00000240: cc5a c2bd e313 ab3c 7756 bcbd 3b37 843d
00000250: dfc1 353d 0782 1c3e e58e f0bd ad5e 66bb
00000260: ecdd d6bd 276e bdbd 2064 c2bb 948d 90bd
00000270: 7e6c f73d f056 b7bd f88f aabb c8ac 01be
00000280: 95e5 66bd 3b9c f7bd 24b2 0dbe 602e 6cbd
00000290: a42e 1fbe 2f5a f53d e74c 76bd 5eb7 023e
000002a0: 3658 f4bd 755b a2bd a9b0 c93d 5553 d63c
000002b0: 7453 aabd 2e6a c33d dfc2 ca3d d72c 21be
000002c0: 833d c13d cb7f 0abe b45b c5bd 7c29 99bc
000002d0: e28c 8a3d ff63 56be 13ad e83d 006f b03d
000002e0: 41f4 e8bc 9373 a3bd 2272 383e cb64 de3d
000002f0: b415 29be b692 713b 8d10 353e 9d6a 233e
00000300: 8d4d e5bd 7d9c b5bd 6b80 4d3d 783a e13d
00000310: 73b8 a8bd bf4f 9ebd bb37 e2bd 3866 3d3e
00000320: 23a0 003e 9470 c23c 8c2f a3bd 028f c4bd
00000330: b278 353d baaf 3ebd 6315 6c3c 879f 4bbd
00000340: 43e3 89bd 47ad 35be f539 36bc 0b9b 80bc
00000350: 5efd 8b3d 1537 d43d 9a52 b0bb 73b8 d43d
00000360: 75fa 04be 4f5f 42bd da3d 00be 3dbd 253e
00000370: 01e7 62bc 3a38 ee3d ea6d 86bd 21ac 4abe
00000380: c3e1 3e3d 8103 3c3c 2489 cdbc b967 893d
00000390: 9f25 433e e7f8 3fbe 25dd d23d 5cae dbbc
000003a0: 9892 c7bd d75b 39be 1dd5 693d e668 593e
000003b0: c975 db3d 122c 833d 09b8 13be 7a16 283d
000003c0: abe3 9c3d d163 42be dd49 9bbd c92a b13d
000003d0: 32db 54be 23af 483b ea29 70bd 56c9 a23d
000003e0: b7bb a7bd 88a2 da3d bc60 c03d 3a6c bebb
000003f0: 28f9 00bd 7483 8e3d 239a 25be 2aeb 2bbe
-0.08102423 0.027418919 0.019334175 0.0076974896 -0.05523317 0.1281766 -0.14813712 -0.15248348
-0.158959 -0.098268725 0.13008612 -0.030998336 -0.13747483 -0.06099051 -0.12663281 0.013363164
-0.14680374 -0.04302246 -0.055250708 -0.17965998 -0.121596314 0.008480249 0.100848645 0.15456572
0.08023019 -0.10500305 -0.032378346 -0.009915402 -0.024251577 -0.13495311 -0.12676662 -0.12084776
0.13889568 0.02762704 -0.18706387 0.04673328 0.0832531 -0.14802574 0.12832652 0.11521044
0.07187009 -0.1460808 0.118466645 0.012890556 0.07464654 0.18645017 -0.046196606 0.022013817
0.09102883 -0.07985691 0.020323083 -0.073304825 0.13145334 0.09123126 0.139444 -0.08175181
-0.13413763 -0.013069733 0.15919122 0.0947341 -0.12694745 0.08418554 0.013157476 -0.13397539
-0.057515558 0.1187353 0.040001694 -0.08239057 0.10845902 0.1003207 -0.12031704 -0.07553087
-0.21649969 0.022884153 0.15171605 0.016891953 0.07486811 -0.13972706 -0.15446028 -0.022398809
-0.11321352 0.10728894 0.044624105 0.03238678 -0.07777691 0.034721393 -0.12117206 0.04182848
0.09230892 0.021307692 0.05718636 -0.019271618 0.09061526 -0.13281414 0.063692406 -0.15090297
-0.033467036 0.116969936 -0.009203593 -0.06331037 -0.16737586 -0.011571888 -0.12915337 -0.14244935
0.103804566 0.13921672 -0.08893585 -0.02069005 -0.042090986 0.11148179 0.10819862 -0.17574354
-0.12646729 0.023304075 0.16364637 -0.17166549 0.18306193 0.024730792 -0.14372331 0.082489595
0.18730088 -0.099524856 -0.038170245 -0.027712695 -0.026227536 0.13052382 -0.005435307 0.18247691
0.11747943 -0.040693786 -0.054549914 -0.017013872 0.069618635 0.020031836 -0.10866536 0.14848836
-0.11526163 0.043527033 0.019628141 0.14419436 0.029265301 -0.082142495 -0.05968972 0.08534494
-0.094899744 0.020883506 -0.09196179 0.06455847 0.044374343 0.15283976 -0.11746005 -0.0035151646
-0.10491547 -0.092495255 -0.005932346 -0.07058254 0.1208124 -0.08952129 -0.0052051507 -0.12663567
-0.05637129 -0.120903455 -0.13837487 -0.057661414 -0.15545136 0.11980092 -0.060131934 0.12765262
-0.119308874 -0.079276 0.098481484 0.026162783 -0.08316699 0.095417365 0.0990045 -0.15739761
0.094355606 -0.13525312 -0.096366316 -0.01869654 0.067651525 -0.20936583 0.11361136 0.086149216
-0.028436782 -0.079810284 0.18012288 0.108590685 -0.16512185 0.0036861128 0.17682095 0.15958638
-0.11196432 -0.088677384 0.050171297 0.1099748 -0.08238306 -0.07730054 -0.11045786 0.18496025
0.12561087 0.023735322 -0.07968053 -0.09597589 0.044304557 -0.046554305 0.014409396 -0.049712684
-0.067328 -0.17741881 -0.0111222165 -0.01569893 0.06835435 0.103620686 -0.0053809406 0.103867434
-0.12986167 -0.047454175 -0.12523594 0.1618547 -0.013849021 0.11631818 -0.06563933 -0.19792224
0.046602022 0.011475445 -0.025089808 0.06709237 0.1905732 -0.18747292 0.10296086 -0.02681654
-0.097447574 -0.1810144 0.057088006 0.21231422 0.10715825 0.0640489 -0.14425673 0.04103706
0.07660612 -0.1898339 -0.07582448 0.08650739 -0.20786741 0.0030621968 -0.058633722 0.07948558
-0.08190101 0.106755316 0.093934506 -0.0058112415 -0.031487614 0.069586664 -0.1617208 -0.16788927

blocks.1.self_attn.out_proj.bias f4 [32]
00000000: 5315 243b 5b3e e1bb a4cb 203c b4e0 2ebd
00000010: e7ae fbba 4a89 0e39 12c9 ab3c 1b70 dd3c
00000020: d607 0a3d 336f 5a3c a53a 753b 8e07 bbbb
00000030: 69c7 a9bc 1ed8 113c 5614 aa3b 9bb6 ddbb
00000040: 3d3d c7bc 328b 30bb 74a1 cbbc b7d7 95bc
00000050: e450 a3bb 9793 d0bb 42e2 c0bc 175b 3dbd
00000060: 968f 2e3c 0895 89bb c5cb 36bb 6196 0ebd
00000070: faac cc3c 7769 86bc d741 293d 78dd 9f3b
0.0025037124 -0.0068738884 0.009814177 -0.042694762 -0.0019201905 0.0001359332 0.020969901 0.027030995
0.03369888 0.013332176 0.0037418988 -0.0057076877 -0.020724969 0.008901624 0.0051904125 -0.006766153
-0.024321193 -0.0026938436 -0.02485726 -0.018291337 -0.004984008 -0.0063652503 -0.023545388 -0.04622945
0.010654351 -0.004198674 -0.0027892452 -0.03481138 0.024984825 -0.016407711 0.041322555 0.004878696

blocks.1.linear1.bias f4 [64]
00000000: 2015 e03c 679b 263e f85a 19be 3ed9 b2bc
00000010: 8bc2 b03d 10fa 11bc e750 00be d5c7 38bd
00000020: 60b2 193d f9eb c63d 50b0 dabd e57f 803d
00000030: 1c34 a13c fb10 04be c24f 033e 2350 eebd
00000040: ead4 a73d 816d c6bd ede9 0a3e 1e45 95bd
00000050: b308 25be 250c 533c 70f2 ccbc b56c b03d
00000060: 607f 14be 1ce4 c63d 8c1c 0f3e 9f1d 58bc
00000070: f632 b33c 9945 9ebd 5344 a4bd 0d9d 193e
00000080: 03d3 92bd 28b2 8e3b a624 3c3d 9ea1 913d
00000090: 117b af3d cfa9 a9bd 99d8 3abe 054e 843c
000000a0: d15a 27be 573e 4b3c 49e5 323e b471 c4bd
000000b0: cc4c 0cbe e1d1 92bd 45e1 943c aa68 f3bd
000000c0: 5202 c13d 0017 18be 7465 eebb b706 f1bd
000000d0: f368 7f3b dccc 18be 0577 1c3e d7ce 3d3d
000000e0: d40f 15be 6e0b 993d aff6 c13d 4ef4 063e
000000f0: 4540 9ebd 5173 b63d 9e39 783c 0ef5 6fbd
0.027353823 0.16270219 -0.14976108 -0.021832105 0.08630856 -0.008909717 -0.12530862 -0.04511245
0.037523627 0.09712977 -0.1067816 0.06274394 0.019678168 -0.12897103 0.12823394 -0.116363786
0.08194907 -0.09688855 0.13565798 -0.07288574 -0.161166 0.012881313 -0.025017947 0.08614484
-0.14501715 0.09711477 0.13975734 -0.013190656 0.021874886 -0.077281184 -0.08020844 0.15001316
-0.071691535 0.004354734 0.04593339 0.07110904 0.08568395 -0.082843415 -0.18246688 0.016150484
-0.16343237 0.012405 0.17470278 -0.09592 -0.1370117 -0.071689375 0.018173823 -0.118851975
0.09424271 -0.14852524 -0.0072752777 -0.11768859 0.0038972467 -0.14921898 0.15279777 0.046339836
-0.14556819 0.07472883 0.09470879 0.13179132 -0.07727102 0.089087136 0.015150456 -0.05858331

blocks.1.linear2.bias f4 [32]
00000000: 8135 97bd e644 853b 8687 29bc 822e f93c
00000010: de52 3dbc 5216 2e3d b5f3 88bd 95fd f5bc
00000020: 6846 83bd ed32 2fbd f231 36bd e40c ae3d
00000030: c5b4 02be bd45 853d 6f62 883d e1e5 bd3d
00000040: ad67 29bd e804 7c3d 0daa f0bd cd9f c7bd
00000050: 0ca3 5e3c e6c6 853d 0dbc b63d 79f5 19be
00000060: 3b72 00bd 8fa2 29bd 2041 453d 4f02 cebc
00000070: 2d14 a53c 6a7b 00bd 3026 173e 408b c8bc
-0.07383252 0.004067051 -0.010347253 0.030417684 -0.011555402 0.042501755 -0.066871084 -0.030028144
-0.06409913 -0.042773176 -0.044481225 0.084985524 -0.1276427 0.06507442 0.066594 0.092723615
-0.04135864 0.061528116 -0.117511846 -0.097472765 0.013588678 0.065320775 0.089225866 -0.15035047
-0.03135894 -0.041414794 0.04815781 -0.025147585 0.020151222 -0.031367697 0.14760661 -0.024480462

blocks.1.norm1.weight f4 [32]
00000000: 00b0 7a3f 2f85 773f 55b8 7f3f 1cb7 843f
00000010: 86b8 763f 157f 7e3f c762 7c3f 03da 793f
00000020: 4e81 753f 86d9 733f a080 6c3f 28b5 783f
00000030: b934 7d3f 6d01 713f b3cf 7c3f 9f4e 7f3f
00000040: 5481 823f 71a3 7f3f 2885 783f 7ac4 7b3f
00000050: 6efa 823f f69f 7c3f 9da4 803f ed59 813f
00000060: 9c63 733f a2ba 793f cb85 803f 7ffd 823f
00000070: ff65 753f 6da8 803f f3df 843f 0431 803f
0.97924805 0.966876 0.99890643 1.036838 0.9637531 0.9941266 0.9858822 0.97598284
0.9590043 0.9525379 0.92383766 0.9715142 0.98908573 0.941428 0.98754424 0.9972934
1.0195718 0.99858767 0.9707818 0.98346674 1.0232675 0.9868158 1.0050236 1.0105568
0.95073867 0.97550404 1.004083 1.0233611 0.9585876 1.00514 1.0380844 1.0014958

blocks.1.norm1.bias f4 [32]
00000000: 78e1 a53a 1063 d3bc 80b5 583c 0900 37bd
00000010: 3102 ceb9 f76c 80bc eca1 1b3c 58f1 ed3c
00000020: ee34 483d 2dc6 d23c 3dd8 8fbc ec8d 113c
00000030: 306d a2bc b28a 803c aa5c 673c 8ebd 7bbc
00000040: 0d84 a6bc d8f8 0fbc de8f efbc d99d babb
00000050: 0bfe 8a3b 70e0 1dbc ffe8 74bc d206 fdbc
00000060: bc06 933c 325c bb3c 2fa1 ae3c ee09 1ebd
00000070: 8f23 f63c 6da7 19bc dcd7 4b3d 5d28 3c3c
0.0012655696 -0.025804073 0.013226867 -0.044677768 -0.00039293015 -0.015676958 0.009499054 0.029045746
0.048878603 0.025729263 -0.017559165 0.0088839345 -0.019827455 0.015691135 0.014121214 -0.015365018
-0.020326639 -0.008787356 -0.029243406 -0.0056950864 0.00424171 -0.00963603 -0.014948129 -0.030887041
0.017947547 0.02287111 0.021317093 -0.03858369 0.030046253 -0.009378296 0.049766406 0.011484233

blocks.1.norm2.weight f4 [32]
00000000: ff4c 843f de53 6f3f 4726 7b3f 79a6 7d3f
00000010: d743 713f 2d44 863f e9a3 793f 5f69 723f
00000020: b4b4 6e3f bbd7 743f 9fd7 7d3f 7f9f 7c3f
00000030: 3b2e 7a3f 2748 753f 110c 7a3f 7d8a 7d3f
00000040: 8056 883f a62f 853f 5317 703f b35a 8a3f
00000050: 428d 873f e234 823f ee06 773f 3b33 803f
00000060: a5d8 773f fbec 833f 24c2 853f ab5a 763f
00000070: 7e1c 763f 5c2d 783f 5a6d 823f cf8b 823f
1.0335997 0.93487346 0.9810528 0.9908214 0.9424414 1.0489556 0.9751573 0.94692034
0.9324448 0.9564168 0.99157137 0.9868087 0.9772679 0.9581322 0.9767466 0.9903944
1.0651398 1.0405166 0.9378559 1.0808929 1.0589983 1.0172389 0.9649495 1.0015634
0.9681495 1.0306696 1.0449872 0.962321 0.96137226 0.9694421 1.0189621 1.0198916

blocks.1.norm2.bias f4 [32]
00000000: 928b 243d ce9d dabc 70b8 273c 929d f0bc
00000010: 610e 763c d063 5abd 7bd3 703b c1e7 b73c
00000020: 8602 a53b 62e2 c63c eda8 2dbd dea0 23bd
00000030: 572a d7bc 2acd c13c bc15 b33c a700 48bd
00000040: 25c2 5ebd 7df5 3b3d d384 8dbc 422f 81bd
00000050: de33 873d 01b4 28bd a0c9 783b b1eb fbbc
00000060: c536 183d 5128 443d dd55 493d bfd2 c8bb
00000070: 62aa 293d 1d25 a03a aede 343d b7a0 fdbc
0.040172167 -0.026686575 0.010236844 -0.02937201 0.015018077 -0.053317845 0.0036747146 0.022449376
0.005035701 0.02427787 -0.04239743 -0.039948337 -0.026265306 0.0236574 0.02186095 -0.048828747
-0.05438437 0.045888413 -0.01727525 -0.06307842 0.0660169 -0.04118729 0.0037961975 -0.030752035
0.037161607 0.04789001 0.04915415 -0.0061286385 0.041422255 0.0012218092 0.044157676 -0.030960424

onnx::MatMul_384 f4 [32, 96]
00000000: ed7a 33be 7ec6 d9bd e811 2fbe 957a 263e
00000010: e71c 82bd 8ef2 3d3e 2478 69bc 73b7 eabd
00000020: 7e80 51be 85d7 4d3e 3e99 08be b367 3bbe
00000030: b0ea 5fbd 9a84 2c3e 8d9b 0e3e d15e 243c
00000040: 5577 e83d 9438 f3bd 7bf9 b1bd 9559 553d
00000050: df0b bebd 397e 92bd 09b5 ebbd 378e 3abe
00000060: 52db a2bd 6ef9 013e 65cb 16be 768f fc3d
00000070: 1201 bebd 818f 2ebe b115 6d3d 3e8f 2ebe
00000080: f786 04be f6d6 6c3e 98ed 553d d448 0abe
00000090: 0979 f9bd eacb 4d3b 2695 363e 4e9b 083e
000000a0: 5a55 023e 1ab8 263e 723a d53c a280 323e
000000b0: 4add 4cbe 15e5 61bd c409 093e 6154 abbd
000000c0: 0c2c 4bbe b201 27be 93ed 1ebd e895 6cbe
000000d0: a452 a2bd 3291 753e a600 a0bd 686e 193d
000000e0: d503 0fbe 7e29 c93d f56b b5bd 22e9 1ebe
000000f0: d7f6 4ebd 7962 8e3d 07ba bcbd 0097 c43d
00000100: 91db 623e 274c 1f3e b2b8 02bc 93ce 5bbe
00000110: 2e54 503e 6a22 8a3e 5cc7 1bbe 0381 51be
00000120: 50fc 11be 83c2 8c3e 255b 703e 4514 1bbd
00000130: a512 7d3d 40a0 cebd c520 ad3d 6754 123b
00000140: 7ced 163e 1803 353e c5cf 8dbd 72ac 81bd
00000150: 7b51 be3d a054 29bc ff7a 12be 2a8a 06be
00000160: f309 3d3e a02e f1bd 5d35 b4bd a30e 9cbd
00000170: 4190 88bd 5bf6 44be 93b0 7abe 8a70 bb3c
00000180: 894e 51be 7cde a6bd 2499 293e d09f 4d3e
00000190: d441 afbb 362a 8a3d 0c6b 743d ce37 b63d
000001a0: a88f 79bc 732a fc3d e38b 0dbe f1a5 9fba
000001b0: 5ef7 d63d 7f64 8a3d 635b 343e b4f4 ffbd
000001c0: 1cd3 193e dd28 2cbe 2801 8d3d 5584 92bd
000001d0: 7177 a03d 4921 273e 388e de3d 8e60 a93d
000001e0: eaf2 1cbc 5c3e aa3d 4db3 45be 8e35 2ebd
000001f0: 7acc 11be ce40 64bd 55c0 87bd 7568 9a3d
00000200: 55a1 c2bd eef3 1dbc 77ac 483e ceae b9bc
00000210: a208 0ebd 7393 00bd b791 e2bd bc91 363c
00000220: 5590 dabd 76bb e73d 7453 f73d d102 94bd
00000230: a197 693e baf1 52be de98 023d 2657 0e3e
00000240: 7062 a13c 5150 803d ec50 383d 9b4d 433e
00000250: 6113 07bd 7d9b 333c 53e1 7b3c e5af 27be
00000260: 09e0 533e 38c8 50be 2215 ffbd 4c3b 11be
00000270: 1e40 813d da70 433e 4949 31be 3dc0 d63c
00000280: aee1 dd3d 470d 5f3e 9eae ed3d ff43 c43d
00000290: c287 463e 326b 903e 4381 1a3e 09f5 cebd
000002a0: 39cb 8e3d 25fe 873e 951a c0bd 8093 733e
000002b0: 6876 2a3e e295 1ebe 569c 08be c64c 853c
000002c0: f97d 16bd 8b7e 14be 629d 203e 5772 5bbe
000002d0: a7ba 03be a9b1 2c3e 211b 1f3e 0a11 043e
000002e0: 895c 623e 960e 34bd 9aed 3e3e 0ef7 5ebe
000002f0: 5cf9 0b3d f1ac 93bd eb99 993d f337 af3d
00000300: 1c2b 6bbd eef0 043e b354 20be b6df 443d
00000310: 65c1 473c 26bd ec3d d1e9 443e d313 a13a
00000320: 16f1 44be 1798 ea3b 8faa 953d 7096 f0bd
00000330: 390c 34be de83 9a3d 6e17 3abe 694d 083e
00000340: c230 04be 94e5 2abe 63a5 9fbd 5a24 423e
00000350: ee23 4c3e 9039 3a3e 37d2 e4bd ef3e 63bd
00000360: bb3a 3bbe e837 09be e742 fe3d 1355 0cbe
00000370: c900 df3c c6e1 d6bd c14a dc3d b479 8fbe
00000380: 567b 5e3e 9e1e 1abe 8867 19be f3b9 e1bd
00000390: 13ad 2c3e a457 bcbd b4ed 29be 2b4c f53d
000003a0: 1823 fabd caa4 27be 8be4 82bc 5dde 90bd
000003b0: e4c1 5c3d f432 d23d 1878 3cbc d264 64bd
000003c0: 2e85 e83c 5c15 6a3e ac18 03bd 9f26 d2bd
000003d0: e620 9f3d 2ec6 86be 798f e6bd 935e 923e
000003e0: 712c 16bd db12 cd3d a4bb 8cbc 8ee7 36bd
000003f0: ddec f1bc 33a5 e23d 5d74 bd3c cc20 6abd
-0.17527361 -0.106335625 -0.17096674 0.16257699 -0.06353169 0.18549559 -0.014249835 -0.114607714
-0.20459172 0.20101745 -0.13339707 -0.18301277 -0.054667175 0.16847458 0.13926525 0.010032372
0.11350886 -0.11876026 -0.08690163 0.052087385 -0.09279608 -0.07152981 -0.11509139 -0.18218313
-0.07951988 0.12692806 -0.14726026 0.123320505 -0.09277548 -0.1704693 0.057882015 -0.1704683
-0.1294211 0.23128876 0.05222854 -0.13504344 -0.12181289 0.003140206 0.17830333 0.13340494
0.12727872 0.16281167 0.026028845 0.17431882 -0.2000629 -0.05515011 0.13382632 -0.083657034
-0.19841021 -0.1630924 -0.038800787 -0.2310406 -0.07925919 0.23981169 -0.07812624 0.037458807
-0.13966306 0.09822367 -0.08858482 -0.1551862 -0.050528374 0.06952376 -0.092151694 0.095991135
0.2215407 0.15556394 -0.007978605 -0.2146552 0.20344612 0.2697938 -0.15212768 -0.2045937
-0.14256406 0.2749215 0.23472269 -0.037861127 0.06178536 -0.10089159 0.08453516 0.002232814
0.1473903 0.17676961 -0.069243945 -0.063317195 0.09292885 -0.010335118 -0.14304732 -0.13138643
0.18460827 -0.11776471 -0.08799241 -0.07619979 -0.06668139 -0.19234602 -0.2448142 0.022880811
-0.20440115 -0.08147904 0.16562325 0.20080495 -0.0053484235 0.06746332 0.0596724 0.08897363
-0.015232004 0.12312784 -0.13822894 -0.0012180192 0.104964 0.06757449 0.17612986 -0.12497845
0.15021938 -0.16812463 0.06884986 -0.071541466 0.07835282 0.16321291 0.1086697 0.082703695
-0.0095794 0.08312675 -0.19306679 -0.042531542 -0.14238158 -0.055725865 -0.06628481 0.07539455
-0.09503428 -0.009640677 0.1959704 -0.022666361 -0.0346762 -0.03139062 -0.11062949 0.011143144
-0.106720604 0.11315052 0.12076464 -0.072271 0.22811748 -0.20600024 0.031884067 0.13900432
0.019700259 0.06265319 0.044999048 0.19072573 -0.032977466 0.010962364 0.015373546 -0.16375692
0.20690931 -0.20388877 -0.12455203 -0.14182776 0.063110575 0.19086018 -0.17313112 0.026214713
0.108340606 0.21782409 0.11605571 0.09583282 0.19387725 0.28206784 0.15088372 -0.101053305
0.069723554 0.26561084 -0.0938007 0.23786736 0.16646731 -0.15486863 -0.13340887 0.01627196
-0.03674123 -0.14501397 0.15685037 -0.21430336 -0.12864171 0.16864647 0.15537693 0.12897125
0.22105612 -0.043959223 0.18645325 -0.21773931 0.034173355 -0.0721072 0.07500061 0.08555593
-0.05741416 0.12982532 -0.1565731 0.04806491 0.012192105 0.11559515 0.19229819 0.0012289233
-0.19232592 0.007159244 0.07307922 -0.11747444 -0.17582788 0.07544683 -0.18173 0.1331078
-0.12909225 -0.1668914 -0.07795217 0.1895918 0.19935581 0.18186021 -0.11172908 -0.05547994
-0.18284123 -0.13400233 0.12415104 -0.13704328 0.027222054 -0.104922816 0.10756446 -0.2802254
0.21726736 -0.15050742 -0.149809 -0.11021795 0.16862898 -0.091964036 -0.16594583 0.119774185
-0.12213725 -0.16371456 -0.015978118 -0.070736624 0.053895846 0.10263625 -0.011503242 -0.055760212
0.028383818 0.2285971 -0.03200595 -0.10261273 0.07769947 -0.26323074 -0.11257834 0.2858778
-0.036663476 0.10013362 -0.017179318 -0.04465442 -0.02953189 0.110666655 0.023126775 -0.057160184
